trainer_source/demo_ckpt.ckpt (torch, 362858 bytes, 428 tensors)

_net._net._blocks.0._rechannel.weight f4 [16, 1, 1]
0	0xbbdfe1b2	-0.006832325
1	0x3dd01c31	0.10161627
2	0xbee7518f	-0.45179412
3	0xbf0bdcf8	-0.54634047
4	0xbd882828	-0.06648284
5	0xbb1c01e6	-0.0023804842
6	0xbe111458	-0.14167917
7	0x3f3981fb	0.7246396
8	0x3c034c39	0.008013778
9	0x3a55589d	0.00081385096
10	0xbb7df226	-0.0038749068
11	0xba450098	-0.0007515042
12	0xbf3924e2	-0.72321904
13	0xbee17f33	-0.44042358
14	0x3a38d8c6	0.0007051345
15	0xbb8a8a93	-0.004227945

_net._net._blocks.0._layers.0._conv.weight f4 [16, 16, 3]
0	0x3e33e510	0.17567849
1	0x3d9f785a	0.07786627
2	0xbe16ca9e	-0.1472573
3	0xbddafc58	-0.10692662
4	0x3d139bd7	0.036037292
5	0xbbd2c437	-0.006432082
6	0x3a18329d	0.0005805882
7	0x3dd2a120	0.102846384
8	0x3df203c6	0.11817126
9	0x3d2a5823	0.04158796
10	0x3df6150f	0.12015735
11	0x3bcaa208	0.0061838664
12	0xbcdf290c	-0.027241252
13	0xbab51335	-0.0013814928
14	0x3d9ed5e8	0.07755643
15	0xbda3687b	-0.079789124
16	0xbe84e7fc	-0.2595824
17	0xbe61b475	-0.22041495
18	0xbd8f17b0	-0.0698694
19	0xbe13412f	-0.14380334
20	0x3d0e1c83	0.03469516
21	0x3df2a655	0.118481316
22	0x3dc69cc8	0.096978724
23	0xbd5976e5	-0.053091902
24	0x3def1d66	0.11675529
25	0xbc9a0281	-0.018800022
26	0xbcb606a8	-0.02221997
27	0xbe3ac9c1	-0.18241026
28	0xbd535fdc	-0.05160509
29	0x3c20acc4	0.009806816
30	0xbd5cafa0	-0.053878427
31	0xbdb514a5	-0.08841828
32	0xbe5787ea	-0.21047941
33	0x3d4c2b7f	0.04984617
34	0x3dcb85e3	0.09937646
35	0x3de7d505	0.11319927
36	0x3da01906	0.07817273
37	0x3b15f342	0.0022880589
38	0x3e6e6716	0.23281512
39	0xbd3ef474	-0.046619847
40	0x3cf6c16a	0.030121524
41	0x3d216490	0.039402544
42	0x3d0cc98e	0.034371905
43	0x3d1ec2c7	0.038759973
44	0x3e3040df	0.17212246
45	0xbd35aa88	-0.044352084
46	0x3d0a7ffa	0.033813454
47	0x3ea0fda2	0.31443506
48	0xbe8dcfa8	-0.27697492
49	0x3dffaa4b	0.12483653
50	0x3e6d6010	0.23181176
51	0x3f0786f2	0.52940285
52	0xbddda72b	-0.108229004
53	0xbecb5161	-0.39710525
54	0xbf0aeac3	-0.5426447
55	0x3e56756a	0.20943227
56	0x3f2a176b	0.66441983
57	0xbea7e352	-0.3279062
58	0x3ec66df3	0.3875576
59	0x3f3c323b	0.73514146
60	0xbf004903	-0.5011141
61	0x3d020f83	0.031753074
62	0x3f0320cb	0.51221913
63	0x3eae575d	0.34051028
64	0xbeab23f6	-0.33425874
65	0xbd0bd23f	-0.034136053
66	0xbec82972	-0.3909412
67	0x3e2776fc	0.16353983
68	0x3f21ee4e	0.6325425
69	0x3ec43023	0.38317975
70	0xbead7ac8	-0.33882737
71	0xbf39e036	-0.72607744
72	0xbecf225f	-0.4045591
73	0x3e0eeead	0.13958235
74	0x3ea97105	0.3309404
75	0x3edb128b	0.42787585
76	0xbddf337d	-0.108984925
77	0xbe0f0fd6	-0.13970885
78	0xbf0b87a1	-0.5450383
79	0x3e3ccdcc	0.1843788
80	0x3ebcd829	0.36883667
81	0xbea000e8	-0.3125069
82	0x3cd7ca87	0.02634169
83	0x3e03edda	0.12883702
84	0xbe938ed5	-0.2881991
85	0x3ec21a9f	0.37910935
86	0x3f115765	0.5677398
87	0xbef878f2	-0.48529774
88	0x3df15f5b	0.11785766
89	0x3f18506e	0.59497726
90	0xbf11acf1	-0.5690451
91	0x3cbcdf02	0.023055557
92	0x3e326979	0.17423047
93	0x3e7846c8	0.24245751
94	0xbe82da58	-0.25557208
95	0xbe055e69	-0.13024296
96	0x3edb3821	0.4281626
97	0x3e667a69	0.22507633
98	0x3f139d6c	0.5766208
99	0xbf3b29a1	-0.73110396
100	0x3f1c05d6	0.60946405
101	0xbe2742e9	-0.16334118
102	0x3f3ac888	0.72962236
103	0xbf0e1197	-0.5549559
104	0x3e9f36c6	0.31096476
105	0x3f35df67	0.7104401
106	0xbf2b4d0b	-0.66914433
107	0x3ea1783b	0.3153704
108	0x3efbd688	0.49187112
109	0xbf35aed4	-0.7096989
110	0x3e199bd4	0.1500085
111	0xbeae9f19	-0.34105757
112	0x3dbee8cf	0.093217485
113	0xbd83042f	-0.06397282
114	0x3f1ab52f	0.60432714
115	0xbf1bdb65	-0.60881644
116	0x3da54ab0	0.08070886
117	0xbf30b8aa	-0.69031775
118	0x3f3ae619	0.7300735
119	0xbe73e6d6	-0.23818526
120	0x3eac2d0d	0.3362812
121	0xbef3a74e	-0.4758858
122	0xbdf045d7	-0.11732071
123	0xbf0d045e	-0.5508479
124	0x3e23ae8c	0.15984553
125	0x3e057796	0.130339
126	0x3ea510f5	0.322395
127	0xbed6472d	-0.41851178
128	0xbe81ca25	-0.25349537
129	0x3f02ff55	0.51170856
130	0xbdf06ae3	-0.11739137
131	0x3e979db3	0.29612502
132	0x3f251fd7	0.6450171
133	0xbf3447b4	-0.7042191
134	0x3dfe0640	0.12403536
135	0x3f11e256	0.56985986
136	0xbf21cf2f	-0.6320676
137	0x3ea0acd6	0.31381863
138	0x3f36a70f	0.7134866
139	0xbeff3757	-0.49846908
140	0x3e3a6372	0.18201998
141	0xbe498e5d	-0.19683214
142	0x3eae2a15	0.3401648
143	0x3ec2aba9	0.3802159
144	0x3da9178c	0.08256444
145	0x3e148a6d	0.1450593
146	0x3dc0116f	0.09378325
147	0xbe4150eb	-0.18878524
148	0x3dcf8553	0.101328515
149	0x3d673770	0.056449354
150	0xbae5d4d6	-0.0017534744
151	0xbd931fe7	-0.07183819
152	0xbe3add30	-0.18248439
153	0x3c59a686	0.013284331
154	0xbd35007d	-0.04418992
155	0xbe1fc17a	-0.15601149
156	0x3e56e1bc	0.20984548
157	0xbd6ee5f6	-0.058324777
158	0xbe3192b1	-0.17341115
159	0xbd3da3ef	-0.046298917
160	0xbe212224	-0.1573568
161	0xbdb87274	-0.09006205
162	0x3e632151	0.22180678
163	0xbe560cac	-0.20903271
164	0xbc9b60e6	-0.018967103
165	0xbde75245	-0.112949885
166	0x3e5d319b	0.21600954
167	0x3da58914	0.08082786
168	0x3ed40d48	0.41416383
169	0x3eb1eae9	0.34749535
170	0x3e3c5fac	0.18395871
171	0xb7a76f4c	-1.9959778e-05
172	0x3b8adaeb	0.004237523
173	0x3e1dae6a	0.15398565
174	0x3dd8ef7a	0.105925515
175	0xbdc8686b	-0.09785541
176	0xbe6fb322	-0.23408177
177	0x3de5db97	0.11223524
178	0xbd63f162	-0.055650122
179	0x3de7efc2	0.11325027
180	0xbd294758	-0.041327804
181	0xbdcf6342	-0.10126354
182	0xbe27be95	-0.16381295
183	0x3d07db5e	0.03316819
184	0xbe1990c7	-0.14996634
185	0x3c3b8015	0.011444111
186	0x3e14a256	0.14515051
187	0x3c780a9f	0.015139251
188	0x3e0a243f	0.1349039
189	0x3e9060b5	0.28198782
190	0x3d951c30	0.07280767
191	0x3e4f6142	0.20251945
192	0x3e6dbb8a	0.23216072
193	0x3c88d3e0	0.016702592
194	0x3b2c3571	0.002627697
195	0xbe7a5315	-0.24445756
196	0xbd342140	-0.043977022
197	0x3d5f77cf	0.054557618
198	0x3e388b13	0.18021803
199	0x3d2fc379	0.042911027
200	0xbe7a4ec3	-0.24444108
201	0x3e091f2f	0.13390802
202	0x3e2c8289	0.1684667
203	0xbe63b862	-0.22238305
204	0x3e40ad8a	0.188162
205	0x3e3f650a	0.18690887
206	0xbd615888	-0.05501607
207	0xbb61ecff	-0.0034473536
208	0xbdf12e53	-0.11776414
209	0xbd0a04c8	-0.033695966
210	0x3e074784	0.13210875
211	0x3ce1e0e0	0.027573049
212	0xbdfa8833	-0.12233009
213	0xbe4bd873	-0.19906788
214	0xbc93f595	-0.018061439
215	0x3e82e62e	0.25566238
216	0xbe15c88f	-0.14627288
217	0xbe26cbbc	-0.16288656
218	0xbe45354f	-0.19258617
219	0xbe308029	-0.17236389
220	0x3e04a36d	0.12952967
221	0x3e01a9ab	0.1266238
222	0xbe0bc607	-0.1364976
223	0xbd89a993	-0.06721797
224	0xbd97af23	-0.074064516
225	0x3e3f61ad	0.18689604
226	0xbdfccb8b	-0.1234351
227	0xbe073462	-0.13203576
228	0x3e8811bb	0.26576027
229	0xbdd85eb1	-0.10564936
230	0xbc99e050	-0.018783718
231	0x3dbb9203	0.09158709
232	0x3d65107d	0.055923928
233	0xbe024581	-0.12721826
234	0x3e332e86	0.17498216
235	0x3dd8e290	0.10590088
236	0x3c53b454	0.012921412
237	0xbe60bf43	-0.2194796
238	0xbc36451a	-0.0111248735
239	0x3de183be	0.11011456
240	0xbe57ce6c	-0.21074837
241	0x3c0990b0	0.008396313
242	0xbe1e6d7a	-0.1547145
243	0xbe3518e0	-0.1768527
244	0xbdd2a0a9	-0.1028455
245	0xbcd98f25	-0.026557514
246	0x3e029105	0.12750633
247	0x3dcfec4b	0.10152491
248	0x3e0b75bf	0.13619135
249	0x3d3bb853	0.045830082
250	0xbbbf1c2d	-0.0058322162
251	0x3e2f726e	0.17133495
252	0x3e25332f	0.16132806
253	0x3cce0ab0	0.02515158
254	0x3c1d7f76	0.009612909
255	0xbd00c3bd	-0.03143667

_net._net._blocks.0._layers.0._conv.bias f4 [16]
0	0xbe0c1198	-0.13678586
1	0x3dc5f37f	0.09665584
2	0xbe5d8f32	-0.21636656
3	0x3e10a1f6	0.14124283
4	0xbe5fa8ba	-0.21841708
5	0xbe719701	-0.2359276
6	0x3eb70654	0.35747015
7	0xbe7da88e	-0.2477133
8	0x3c3c8c45	0.011508052
9	0xbdde07ca	-0.108413294
10	0xbe3397b5	-0.1753834
11	0xbe0705d5	-0.13185818
12	0x3ecfe755	0.4060618
13	0xbe88e384	-0.2673608
14	0xbe8397bc	-0.25701702
15	0xbe0bd71e	-0.1365628

_net._net._blocks.0._layers.0._input_mixer.weight f4 [16, 1, 1]
0	0x3e9f3dfa	0.31101972
1	0xbf8c158f	-1.0944079
2	0x3f076dd3	0.52901953
3	0xbf1dbcb5	-0.6161607
4	0x3e10e31c	0.14149135
5	0x3f4f4ce7	0.8097672
6	0x3f9f442e	1.2442682
7	0xbf2e84de	-0.6817149
8	0x3e91db87	0.284878
9	0x3e460c72	0.19340685
10	0xbe8b8eb4	-0.2725731
11	0xbe85fe67	-0.26170656
12	0xbe68b8c6	-0.22726735
13	0xbf8c721c	-1.0972323
14	0xbe161d0a	-0.14659515
15	0x3e918f83	0.28429803

_net._net._blocks.0._layers.0._global_mixer.weight f4 [16, 6]
0	0x3d1ef3bd	0.038806666
1	0x3cb01325	0.021493504
2	0x3a5869ba	0.00082555006
3	0x3c188353	0.009308654
4	0x3dbc2e00	0.09188461
5	0x3c088848	0.008333273
6	0x3eac172c	0.3361143
7	0x3789f12f	1.6443983e-05
8	0xbdde2c85	-0.10848335
9	0xbf0c478d	-0.5479668
10	0xbd817b9f	-0.06322407
11	0xbd655f94	-0.055999354
12	0x3e70f026	0.2352911
13	0xbd718c31	-0.058971588
14	0x3d4cf258	0.050035805
15	0xbd181663	-0.037130725
16	0xbe502d25	-0.20329721
17	0xbd778698	-0.060431093
18	0xbf274d73	-0.65352553
19	0x3e922722	0.2854548
20	0xbc5d707a	-0.013515586
21	0xbe2d7337	-0.16938482
22	0xbe8a686b	-0.2703279
23	0x3df907a4	0.121596605
24	0x3dcfd107	0.10147291
25	0x3e682f35	0.22674258
26	0x3caf95bc	0.021433704
27	0x3e552b98	0.20817411
28	0x3f0f8a9b	0.5607087
29	0x3df69efc	0.120420426
30	0x3efc82da	0.49318582
31	0x3e287de6	0.16454276
32	0x3e1ac201	0.15113069
33	0x3d61c5be	0.055120222
34	0x3dc42f2a	0.09579308
35	0x3e837b89	0.25680187
36	0xbedcc3e4	-0.43118203
37	0xbd215150	-0.039384186
38	0xbd5b1dc0	-0.05349517
39	0xbec5404d	-0.3852562
40	0xbe46cfe3	-0.1941524
41	0xbe00f37b	-0.1259288
42	0x3f1fd4a9	0.6243387
43	0xbee9260b	-0.45536837
44	0x3e88751a	0.2665184
45	0x3ed66593	0.4187437
46	0x3e886c1b	0.26644978
47	0x3d855882	0.06511022
48	0x3f58a98e	0.8463372
49	0xbd2dad63	-0.042401683
50	0xbd84e00c	-0.06488046
51	0xbf3cd5a7	-0.7376351
52	0x3e73c229	0.23804535
53	0x3e41fe30	0.18944621
54	0x3efcab3b	0.49349388
55	0x3d1bc5a0	0.038030267
56	0xbe58d456	-0.2117475
57	0x3db354d7	0.08756416
58	0x3ea34540	0.3188877
59	0x3e0ac2b4	0.13550836
60	0x3f5bae2e	0.8581265
61	0x3ef5f552	0.48038727
62	0xbd59eece	-0.053206258
63	0xbe379ea9	-0.17931618
64	0x3dd6666a	0.10468753
65	0xbe234039	-0.15942468
66	0xbc5bdb7a	-0.0134190265
67	0xbb8bc56a	-0.004265477
68	0x39eb1037	0.00044834774
69	0xbb69f2ee	-0.0035697776
70	0xbd1496ca	-0.036276616
71	0x39c6a4d7	0.00037888318
72	0xbef2362d	-0.47306958
73	0x3d819d82	0.0632887
74	0xbe7fdbaf	-0.24986146
75	0x3de5c31f	0.11218857
76	0xbd357edb	-0.044310432
77	0x3d1af58a	0.03783182
78	0x3e410df0	0.18852973
79	0xba717d60	-0.0009212103
80	0x3e2f62c8	0.17127526
81	0xbd6a4f7c	-0.05720471
82	0x3e9827f6	0.29717988
83	0x3d45d690	0.048300326
84	0x3f73a1b7	0.9516863
85	0x3e4fb802	0.20285037
86	0x3f0fdefc	0.5619962
87	0x3e521a63	0.20517878
88	0x3f00fe1c	0.5038774
89	0x3da70aea	0.081563786
90	0xbdd81721	-0.105512865
91	0x3e4934f1	0.19649102
92	0xbc2d5859	-0.010580146
93	0xbd46109d	-0.048355687
94	0x3f14d952	0.58144104
95	0x3e277ca3	0.16356139

_net._net._blocks.0._layers.0._global_mixer.bias f4 [16]
0	0x3c13ad82	0.009013535
1	0x3e82faac	0.25581872
2	0x3e3ce3a1	0.18446209
3	0x3edc70e4	0.4305488
4	0xbf157c85	-0.58393127
5	0xbf0ecbd6	-0.5577978
6	0x3f099bb1	0.5375319
7	0xbe746aab	-0.23868816
8	0x3d96d736	0.07365267
9	0xbf0df4b2	-0.554515
10	0xbeffa55b	-0.49930844
11	0x3e3628f6	0.17789063
12	0x3f4271db	0.7595498
13	0xbf0961da	-0.53664935
14	0xbda165f8	-0.07880777
15	0xbedc1042	-0.42981154

_net._net._blocks.0._layers.0._1x1.weight f4 [16, 16, 1]
0	0x3a08b0b2	0.0005214318
1	0xbe924665	-0.28569332
2	0xbde98cf1	-0.114038356
3	0x3d6ae426	0.057346486
4	0xbccaed03	-0.02477122
5	0xbe07aacb	-0.13248746
6	0x3f07350f	0.52815336
7	0x3eda53aa	0.42641956
8	0x3e19b477	0.15010248
9	0xbe1f7dc1	-0.15575315
10	0x3e338a67	0.17533265
11	0x3ade4768	0.0016958537
12	0x3ee9cd06	0.45664233
13	0xbd77e5b5	-0.0605218
14	0xbe3db61b	-0.18526499
15	0x3e3f5b51	0.18687178
16	0xbaa390e8	-0.0012479099
17	0x3cd4d708	0.025981441
18	0xbe47f895	-0.1952842
19	0x3e18809d	0.14892812
20	0x3f28a731	0.65880114
21	0xbdf578a4	-0.11985901
22	0xbe327451	-0.17427184
23	0xbe288fb1	-0.16461064
24	0xbe602805	-0.21890266
25	0x3dc98b60	0.09841037
26	0xbd6e9d06	-0.058255218
27	0xbb47714f	-0.0030432527
28	0xbe31b6d5	-0.17354901
29	0xbd8232ba	-0.063573316
30	0x3efd0094	0.49414504
31	0x3d869434	0.06571236
32	0x3b78716a	0.0037909397
33	0x3df56de2	0.11983849
34	0xbd3de4e2	-0.046360858
35	0xbea191f4	-0.31556666
36	0x3cf00238	0.029297933
37	0x3e0fc7c8	0.14041054
38	0xbe4e88b2	-0.20169333
39	0xbde5e9dc	-0.11226246
40	0x3e9aa278	0.3020208
41	0x3eb0cf7f	0.34533307
42	0x3f02be19	0.51071316
43	0x39cfd655	0.00039641807
44	0x3ec6a4c2	0.38797575
45	0x3e832cdd	0.25620165
46	0xbecde492	-0.40213448
47	0x3db03537	0.086039
48	0x3b0212fa	0.0019847737
49	0x3e5d96cc	0.21639556
50	0x3da1b59b	0.078959666
51	0x3ebf4ef4	0.37364924
52	0xbdaad56c	-0.08341488
53	0xbf01f9c8	-0.5077176
54	0x3e8db020	0.27673435
55	0xbecb4a7b	-0.39705262
56	0x3df58aca	0.119893625
57	0xbe8a6023	-0.27026471
58	0xbef21c5c	-0.4728726
59	0x3b912a69	0.0044301045
60	0xbe1783b0	-0.14796329
61	0x3c20a37d	0.009804604
62	0xbe5b6855	-0.21426518
63	0x3e641948	0.22275269
64	0xba0c6928	-0.00053562457
65	0x3db1de66	0.08684997
66	0xbb5323b5	-0.0032217328
67	0xbd873118	-0.06601161
68	0xbe30c8d4	-0.1726411
69	0x3e3869a3	0.18009047
70	0xbe502206	-0.20325479
71	0x3d2e07c3	0.04248787
72	0xbe352473	-0.17689686
73	0xbe71d037	-0.23614584
74	0x3db2d665	0.08732299
75	0xbb851786	-0.004061642
76	0x3d0d7987	0.034539726
77	0xbd465e08	-0.04842952
78	0xbe97b8c4	-0.29633152
79	0x3cbf1531	0.023325535
80	0x3b2afff7	0.0026092508
81	0xbdafe023	-0.085876726
82	0x3cba2780	0.022723913
83	0xbe7ccb87	-0.24687015
84	0x3f5e9486	0.8694538
85	0xbd995046	-0.07486014
86	0xbe102f42	-0.14080527
87	0x3e67c51a	0.22633782
88	0x3e4e9ece	0.20177767
89	0x3e5c47fa	0.21511832
90	0xbdadcb8a	-0.084860876
91	0x3bf789f5	0.0075542876
92	0x3b1537cf	0.002276886
93	0xbddb1a40	-0.10698366
94	0x3dc5c5a0	0.096568346
95	0x3e837545	0.25675407
96	0xba0d5601	-0.0005391539
97	0xbe055e1f	-0.13024186
98	0xbcdce65f	-0.026965318
99	0xbc6d08dc	-0.014467444
100	0xbf06f148	-0.52711916
101	0x3b81b5a0	0.003958419
102	0x3e4be180	0.1991024
103	0x3d703c04	0.058650985
104	0xbe99cd37	-0.3003938
105	0x3ec20347	0.37893125
106	0x3dc9ad7d	0.098475434
107	0x3c582b8a	0.013193974
108	0xbe13ff4c	-0.14452857
109	0xbd3fd9e5	-0.04683866
110	0x3e934923	0.28766736
111	0x3e1d618a	0.1536924
112	0xba46417c	-0.00075628585
113	0x3e3a7f9f	0.18212746
114	0xbe18dc8a	-0.14927879
115	0x3ec1c697	0.37846825
116	0xb9d01e57	-0.00039695457
117	0xbe939b18	-0.28829265
118	0x3e6303b8	0.22169387
119	0xbd24938e	-0.04017978
120	0xbe3f678b	-0.18691842
121	0xbcb303b4	-0.021852352
122	0xbe979e49	-0.2961295
123	0xbb128db8	-0.0022362303
124	0x3ecc0203	0.39845285
125	0x3e55d017	0.20880161
126	0xbeff02e0	-0.4980688
127	0xbd1533a4	-0.0364262
128	0x3adad0b3	0.0016694277
129	0x3daa8271	0.08325661
130	0x3e190f32	0.14947203
131	0xbec93280	-0.3929634
132	0x3f15d91c	0.5853441
133	0x3e81b1b6	0.25330895
134	0xbe278eb6	-0.16363034
135	0x3eac538f	0.336575
136	0xbcdcb40e	-0.026941326
137	0xbd9c91e5	-0.07645015
138	0x3d4c8a32	0.04993648
139	0xb9baf29f	-0.0003565745
140	0x3e677662	0.22603753
141	0x3ebbae63	0.36656484
142	0xbd215410	-0.03938681
143	0x3d9a06fc	0.075208634
144	0x3bcd7427	0.00626995
145	0xbebd4340	-0.3696537
146	0x3c4be22b	0.012444059
147	0x3ce76a39	0.028248893
148	0xbf66fad7	-0.902265
149	0x3defffba	0.11718698
150	0x3f04c427	0.51861805
151	0x3e28be16	0.16478762
152	0xbe01bcae	-0.12669632
153	0x3f042275	0.5161508
154	0x3e2fbdc4	0.17162234
155	0x3c8bd358	0.01706855
156	0xbd065396	-0.032794558
157	0x3dd23ad5	0.102651276
158	0x3e7b1160	0.24518347
159	0x3ea39a07	0.3195345
160	0x3aa71878	0.0012748381
161	0xbe555751	-0.2083409
162	0x3e4b3286	0.19843492
163	0x3f0567eb	0.5211169
164	0x3e843646	0.25822657
165	0x3ebc360c	0.36759984
166	0x3ee771e5	0.45204082
167	0xbdc75a1e	-0.09733985
168	0xbe10f60d	-0.14156361
169	0x3d8c3262	0.06845547
170	0x3e066b28	0.13126814
171	0x3a8d5023	0.0010781329
172	0x3c57947e	0.013157962
173	0xbc2e07a3	-0.010621938
174	0x3e3c99b2	0.18418005
175	0xbb30c8b8	-0.0026975106
176	0x3aa8f4ab	0.00128903
177	0x3e4b116c	0.19830865
178	0xbe129111	-0.14313151
179	0xbf1f54cc	-0.62238765
180	0x3e600137	0.21875463
181	0x3ef62929	0.48078278
182	0xbe90198d	-0.28144494
183	0xbf10445a	-0.56354296
184	0xbc104757	-0.008806071
185	0xbe9b6317	-0.30349037
186	0xbea33e0c	-0.31883276
187	0x3c373345	0.011181657
188	0x3d7d1837	0.06179067
189	0xbd95382d	-0.07286105
190	0xbe5aab1c	-0.21354336
191	0xbe845658	-0.25847125
192	0x3a859e61	0.0010194295
193	0xbedfe72b	-0.43731055
194	0x3d1f874e	0.038947396
195	0xbdc39b36	-0.095510885
196	0xbecca0ba	-0.39966375
197	0xbdd0d8fe	-0.10197638
198	0x3de1fdc6	0.110347316
199	0xbe4ba203	-0.19886021
200	0x3e29de19	0.1658863
201	0x3cbb2aa3	0.02284748
202	0xbea9303f	-0.3304462
203	0xba9ab2f9	-0.0011802606
204	0x3cbc3df0	0.022978753
205	0x3e89c349	0.26906803
206	0xbe44e36b	-0.19227378
207	0xbe11c863	-0.14236598
208	0xba957acc	-0.0011404394
209	0x3c389513	0.011266011
210	0x3e700672	0.23439959
211	0xbeb5fb50	-0.355433
212	0x3e01bfa2	0.12670758
213	0xbd7aaa24	-0.061197415
214	0xbe922057	-0.28540298
215	0xbed9ee48	-0.42564607
216	0x3ddf0064	0.108887464
217	0xbe0bc168	-0.13647997
218	0xbe44121b	-0.19147532
219	0xbb8c04f3	-0.004273051
220	0xbdacf6a0	-0.084454775
221	0xbcfdc47e	-0.030977484
222	0x3e08dc2f	0.13365243
223	0x3c758712	0.014985817
224	0xb9ba6b6b	-0.00035556717
225	0x3eae42d2	0.34035355
226	0x3e4cbf83	0.19994931
227	0xbe848936	-0.25885934
228	0xbe2dd8b9	-0.16977204
229	0x3e7f7863	0.24948268
230	0xbe970600	-0.29496765
231	0xbe2ab395	-0.16670068
232	0xbeb912d9	-0.36147192
233	0x3cf84b7d	0.030309433
234	0xbeb3a41e	-0.3508615
235	0xbb3b84fc	-0.00286132
236	0x3b89d832	0.0042066807
237	0xbe813e0c	-0.2524265
238	0xbe006196	-0.12537226
239	0xbc1f3a3c	-0.009718474
240	0xbb427b43	-0.002967552
241	0xbe2b909f	-0.16754387
242	0xbe4e2492	-0.20131138
243	0xbe4cd470	-0.20002913
244	0xbe120b77	-0.14262186
245	0xbe8a58ea	-0.2702096
246	0x3e391942	0.18076041
247	0xbdebe6bf	-0.11518621
248	0x3e46d215	0.19416077
249	0x3e3c12d4	0.18366557
250	0xbe1aee06	-0.15129861
251	0xbb4a775f	-0.0030893905
252	0xbe857e62	-0.26072985
253	0x3dbc34bb	0.09189745
254	0x3f2e8178	0.68166304
255	0xbd88d22c	-0.06680712

_net._net._blocks.0._layers.0._1x1.bias f4 [16]
0	0xbeb78c88	-0.35849404
1	0xbe3dc26b	-0.18531196
2	0xbce6fac1	-0.02819574
3	0x3ecd736b	0.4012712
4	0x3e91cf64	0.2847854
5	0xbe9801d8	-0.29688907
6	0xbc6ac1d7	-0.014328442
7	0x3eba213f	0.3635349
8	0xbdedd605	-0.116130866
9	0xbddd8954	-0.10817209
10	0xbda0a22b	-0.07843431
11	0x3ea2faf4	0.31832087
12	0x3ebc6957	0.36799118
13	0x3d5afb9d	0.053462613
14	0x3e98933c	0.2979983
15	0xbedc15c5	-0.4298536

_net._net._blocks.0._layers.1._conv.weight f4 [16, 16, 3]
0	0x3ea57ffc	0.32324207
1	0x3e4176bc	0.1889295
2	0x3e6a33c3	0.22871308
3	0x3d871d93	0.06597438
4	0xbeb970c4	-0.36218846
5	0xbe81b7a1	-0.2533541
6	0x3e43861f	0.19094132
7	0x3edb8c60	0.42880535
8	0x3d038b1d	0.03211509
9	0x3ecd9ed5	0.40160242
10	0x3ee5371f	0.44768617
11	0xbda6faba	-0.08153291
12	0x3df159e1	0.11784721
13	0xbe154658	-0.14577615
14	0xbda9b164	-0.08285788
15	0xbf0fbb45	-0.56145126
16	0xbe8de755	-0.27715555
17	0xbd341181	-0.043962006
18	0x3e108bd1	0.14115836
19	0xbf05c9bc	-0.5226095
20	0x3ecd641a	0.40115434
21	0x3eb2c13f	0.3491306
22	0x3e7ebce7	0.24876748
23	0xbe8adf50	-0.271235
24	0x3e05c42a	0.13063112
25	0x3e1ec0c6	0.15503225
26	0xbe6175e0	-0.22017622
27	0x3e2b0927	0.1670271
28	0xbebb6be8	-0.36605763
29	0x3e3a894e	0.1821644
30	0x3e0dc058	0.13842905
31	0x3ac0f3e1	0.0014721119
32	0xbc37e3e9	-0.011223772
33	0xbe957963	-0.29194173
34	0x3ebef358	0.37295032
35	0xbea07c55	-0.31344858
36	0x3e314b3b	0.17313854
37	0xbdedffb0	-0.11621034
38	0xbd3cccb8	-0.046093673
39	0xbe0e5ba3	-0.13902144
40	0xbd86d92b	-0.0658439
41	0x3e92bae8	0.28658223
42	0x3dbcd7e6	0.09220867
43	0x3e0e065d	0.13869615
44	0x3e31bfc9	0.17358316
45	0x3c9ddac5	0.019269357
46	0xbeb41ca1	-0.35178092
47	0x3de03be9	0.10948927
48	0xbeba6715	-0.3640677
49	0x3ea5c721	0.32378486
50	0xbe8268f2	-0.25470692
51	0x3e3bf3f8	0.18354785
52	0x3e3d8a85	0.18509872
53	0xbd68b3da	-0.056812145
54	0x3c14cbbc	0.009081777
55	0x3e89caad	0.26912442
56	0x3e213900	0.157444
57	0xbdf1e792	-0.11811747
58	0x3dfca763	0.12336614
59	0x3db563db	0.088569365
60	0xbdaead9e	-0.085292086
61	0x3d606919	0.05478773
62	0x3e0d3b10	0.13792062
63	0x3e2aec27	0.16691647
64	0x3ca90600	0.020632744
65	0x3e354b99	0.1770462
66	0xbe36b26b	-0.17841499
67	0x3d656dfe	0.0560131
68	0x3e108314	0.14112502
69	0xbd0f1db8	-0.03494045
70	0x3ee28208	0.4423983
71	0x3e65d207	0.224434
72	0xbea73687	-0.3265879
73	0x3d18e978	0.03733203
74	0x3d486f96	0.04893454
75	0xbecc2a60	-0.3987608
76	0x3ee7f49b	0.45303807
77	0x3f10b5fc	0.56527686
78	0xbe4c6cef	-0.1996343
79	0xbe4a31e8	-0.197456
80	0x3bc52e77	0.006017502
81	0x3e328bd6	0.17436156
82	0x3f2b66a2	0.6695348
83	0xbe5fad80	-0.21843529
84	0xbe584515	-0.21120103
85	0x3d040d5f	0.032239314
86	0x3d90d7d8	0.07072419
87	0x3f229cf3	0.63520736
88	0xbfa913ed	-1.3209206
89	0xbebb872b	-0.36626562
90	0x3ea6e3ea	0.3259576
91	0xbed8c28d	-0.4233593
92	0xbf24ce4d	-0.6437729
93	0xbdccbece	-0.099973306
94	0xbe2c6092	-0.16833714
95	0xbe1e39c5	-0.15451725
96	0xbf63a0d1	-0.8891726
97	0x3f4fdd28	0.8119683
98	0x3ecd9424	0.40152085
99	0x3f04c048	0.518559
100	0xbed54513	-0.41654262
101	0xbddc5f67	-0.10760384
102	0xbe60d466	-0.21956024
103	0x3ebf8866	0.3740875
104	0xbd9543fb	-0.07288357
105	0x3dce0268	0.10059053
106	0x3e573454	0.21016055
107	0x3d2b9844	0.04189326
108	0xbee57861	-0.44818404
109	0x3e0c72a8	0.13715613
110	0xba2216b3	-0.0006183192
111	0x3ee31840	0.4435444
112	0xbd5f12a9	-0.054461155
113	0x3e830ea1	0.25597098
114	0x3fb32ba4	1.3997693
115	0xbf8b3d3c	-1.0878062
116	0x3c0f66ac	0.008752506
117	0xbedc8371	-0.43069032
118	0x3f5420b3	0.82862395
119	0xbddcb4b5	-0.10776655
120	0xbe14f7a8	-0.14547598
121	0x3f0826f3	0.5318443
122	0x3ddf13cf	0.1089245
123	0xbe03efaa	-0.12884393
124	0x3bc03887	0.0058661136
125	0x3e585e8e	0.2112982
126	0xbf0ade8b	-0.54245824
127	0xbec4d4e6	-0.3844368
128	0xbf3d45c8	-0.739346
129	0x3f0a05d5	0.5391515
130	0x3e8e8815	0.27838197
131	0x3e8881ed	0.26661626
132	0xbc71206c	-0.014717203
133	0x3e8ab604	0.27091992
134	0x3d5488be	0.05188822
135	0x3eaebcaf	0.3412833
136	0x3ecfbc38	0.40573287
137	0x3c0619e9	0.008184888
138	0x3f5f30f0	0.8718405
139	0xbe42b40a	-0.19013992
140	0x3d8b2902	0.06794931
141	0x3f654e19	0.8957229
142	0xbe82d3e5	-0.25552288
143	0x3f01fc5a	0.5077568
144	0x3f0cadd4	0.5495274
145	0xbf86ad24	-1.0521588
146	0xbd5cc85f	-0.053902026
147	0xbe49c6cf	-0.19704746
148	0xbe5807eb	-0.2109677
149	0xbe0c12d0	-0.13679051
150	0x3dc39a10	0.095508695
151	0x3d7e69e1	0.062112693
152	0xbd813288	-0.06308466
153	0x3e6648ea	0.22488752
154	0xbdb61aca	-0.08891828
155	0xbe90c325	-0.28273883
156	0x3e1cfe3d	0.15331359
157	0xbe02bcf3	-0.12767391
158	0xbd81b1f9	-0.06332774
159	0xbeaf47e1	-0.34234527
160	0x3d7b4c65	0.061352152
161	0x3e91c9df	0.28474328
162	0x3e629018	0.2212528
163	0xbe2a93c1	-0.16657926
164	0x3ee4c5e4	0.4468223
165	0x3e260ad7	0.16215073
166	0xbe5174e2	-0.20454744
167	0xbe6cc1f6	-0.23120865
168	0x3e5ae808	0.21377575
169	0x3d98c134	0.074587256
170	0xbe64541f	-0.22297715
171	0x3ebfb1ae	0.37440246
172	0xbf9202e3	-1.1407131
173	0x3dae0006	0.08496098
174	0x3f532b38	0.8248782
175	0xbec994ec	-0.3937143
176	0xbf56af75	-0.83861476
177	0xbe46840c	-0.1938631
178	0x3f117be1	0.5682965
179	0xbe2dbe1e	-0.16967055
180	0x3e968352	0.29397064
181	0xbe80acc9	-0.25131825
182	0xbe6c3382	-0.23066524
183	0x3e712f7c	0.2355327
184	0x3f66671a	0.9000107
185	0xbf843e60	-1.0331535
186	0xbe8c3d56	-0.27390546
187	0x3f112fc7	0.5671353
188	0xbe08cc6b	-0.1335923
189	0xbe23c997	-0.15994869
190	0x3ce61c7e	0.028089758
191	0x3f2fa3d7	0.68609375
192	0x3e8e1c7a	0.277561
193	0xbd76b851	-0.06023437
194	0x3e3e0e2d	0.18560095
195	0x3f0316d5	0.51206714
196	0x3dc7a269	0.09747774
197	0x3f3481e8	0.7051072
198	0x3ecdb7e8	0.40179372
199	0x3f1f5bdb	0.62249535
200	0xbda4f125	-0.08053807
201	0xbcac35ea	-0.021021802
202	0x3e887c91	0.26657537
203	0xbee1a9ef	-0.44074962
204	0xbe196e8f	-0.14983581
205	0x3d1beabc	0.038065657
206	0xbf57c008	-0.8427739
207	0xbe1cb490	-0.15303254
208	0xbed6c3ec	-0.41946352
209	0x3eee8554	0.46586096
210	0xbd00e478	-0.031467885
211	0xbf94fc2d	-1.1639458
212	0x3f6e852f	0.9317197
213	0xbd500720	-0.050788045
214	0x3f345035	0.70434886
215	0xbf7df4d7	-0.9920172
216	0x3e4abc4a	0.19798389
217	0x3ee61d15	0.44944063
218	0xbeeb564a	-0.4596427
219	0xbbd7cbf4	-0.0065855924
220	0xbe89ff8c	-0.2695278
221	0x3f1cb5aa	0.612147
222	0x3e88a430	0.26687765
223	0xbf0f92e6	-0.56083524
224	0x3dccbd29	0.09997017
225	0x3e3101dc	0.17285866
226	0xbe830feb	-0.25598082
227	0xbef2ceaf	-0.47423312
228	0xbb98a5dc	-0.004658444
229	0xbd01cf98	-0.031692117
230	0xbf4c6cf4	-0.7985375
231	0x3f52bf39	0.8232303
232	0x3e52482f	0.20535348
233	0xbe213493	-0.15742712
234	0xbd152f85	-0.03642227
235	0xbf2e901d	-0.6818865
236	0xbf1a06a5	-0.6016639
237	0xbe4f5472	-0.20247057
238	0xbf04a56e	-0.51814926
239	0x3f8d8f8d	1.1059433
240	0x3db8af0c	0.090177625
241	0x3ca7daba	0.02049004
242	0x3ea555b7	0.32291958
243	0xbe6d76f2	-0.23189905
244	0x3ce1968a	0.027537603
245	0xbe09fbd5	-0.13474973
246	0xbd731259	-0.05934367
247	0xbdbb65ef	-0.09150302
248	0x3f118a13	0.5685131
249	0xbf39a6d3	-0.7252018
250	0xbebd7946	-0.37006587
251	0x3df8b002	0.12142946
252	0xbec328cd	-0.38117066
253	0xbefe722d	-0.49696484
254	0x3e9c16bf	0.30486104
255	0x3e3d1ef7	0.18468843

_net._net._blocks.0._layers.1._conv.bias f4 [16]
0	0xbd2a8418	-0.04162988
1	0x3d66d860	0.056358695
2	0xbe94a853	-0.2903467
3	0x3ea6c760	0.32573986
4	0xbe2efe90	-0.17089295
5	0xbe022149	-0.1270801
6	0x3ea3a4d5	0.31961694
7	0xbe9109fc	-0.2832793
8	0x3eb9ee43	0.36314592
9	0x3eebd3d5	0.46060053
10	0xbe930e00	-0.2872162
11	0xbe117a3e	-0.14206788
12	0x3d9619ff	0.07329177
13	0xbd6b5851	-0.057457272
14	0x3e6055ca	0.21907726
15	0x3d9c6104	0.07635692

_net._net._blocks.0._layers.1._input_mixer.weight f4 [16, 1, 1]
0	0x3eb08fce	0.34484714
1	0xbb9ce6e2	-0.0047882656
2	0x3f03d620	0.51498604
3	0xbf147cb1	-0.58002764
4	0x3f05bad6	0.52238214
5	0x3f8e3e87	1.1112832
6	0xbe3a1976	-0.18173775
7	0xbf0a9389	-0.5413137
8	0x3f44705d	0.7673395
9	0xbe9b5b2a	-0.3034299
10	0xbea6264b	-0.3245109
11	0xbe9e5d86	-0.30930728
12	0xbc70804d	-0.014679027
13	0xbe5382d5	-0.20655377
14	0xbe726992	-0.23673084
15	0x3f465c62	0.77484715

_net._net._blocks.0._layers.1._global_mixer.weight f4 [16, 6]
0	0x3f20ec67	0.6286072
1	0x3e8e7ff0	0.27831984
2	0x3fa3155f	1.2740897
3	0xbf0e0e6d	-0.5549076
4	0x3f23d38c	0.6399467
5	0x3d4e4345	0.050357122
6	0xbebbc07e	-0.36670297
7	0x3ebaaf07	0.3646166
8	0xbefdc52e	-0.495645
9	0x3f23e649	0.6402326
10	0xbf393ad4	-0.7235539
11	0x3e66a9b7	0.22525679
12	0xbe2be043	-0.16784768
13	0xbf7db97c	-0.9911115
14	0x3ed2c45e	0.4116544
15	0x3fd35dcb	1.6512998
16	0xbe639ad8	-0.22227037
17	0xbe23d1a5	-0.15997942
18	0xbf2c1191	-0.67214304
19	0xbe8e6bfd	-0.27816764
20	0xbe2569bb	-0.16153614
21	0xbd672129	-0.05642811
22	0xbe02abf2	-0.12760904
23	0xbe2eb0a4	-0.1705957
24	0x3ea6327a	0.32460386
25	0x3edfde51	0.437243
26	0xbdaab83e	-0.08335923
27	0xbf0404d1	-0.5156985
28	0xbe1cd70b	-0.15316407
29	0x3e917a86	0.2841379
30	0xbe7daa45	-0.24771984
31	0x3f2893a5	0.6585029
32	0xbe94c682	-0.290577
33	0xbecf6ebb	-0.40514168
34	0xbe8d1155	-0.27552286
35	0x3de3d47e	0.11124514
36	0x3f01bbc1	0.50677115
37	0xbf13fa89	-0.5780416
38	0x3dc8960c	0.09794244
39	0xbf67b77a	-0.9051434
40	0xbe84597f	-0.2584953
41	0xbdc3dd79	-0.09563727
42	0x3f5ed9cb	0.87051076
43	0x3ef953e4	0.48696816
44	0x3d03e320	0.032199025
45	0x3e62a4b3	0.2213314
46	0x3ee6aad0	0.45052195
47	0x3e052b4d	0.13004799
48	0xbee454ba	-0.4459589
49	0x3d94e0e6	0.072694585
50	0xbeafbb38	-0.34322524
51	0x3f24ca71	0.643714
52	0x3e5fa4fe	0.21840283
53	0x3db9e253	0.09076371
54	0xbe969d59	-0.29416922
55	0xbd47830d	-0.048708964
56	0xbd1694d0	-0.036763012
57	0x3f10830c	0.5644996
58	0xbee8f1fb	-0.45497116
59	0x3da71b1f	0.0815947
60	0x3ecf6b61	0.4051161
61	0x3e64c5e7	0.22341119
62	0xbf12089c	-0.57044387
63	0xbe146cba	-0.14494601
64	0x3ecdcbca	0.4019454
65	0x3f40fea3	0.75388545
66	0xbf16f4e0	-0.589674
67	0xbf320fbe	-0.6955527
68	0xc00219cf	-2.0328252
69	0x3ef3e8b7	0.47638485
70	0xbe00f81d	-0.12594648
71	0x3dd2e6fd	0.10297964
72	0xbf87488f	-1.0569018
73	0x3f0cb753	0.5496723
74	0x3e4efe79	0.20214261
75	0xbef6d5e0	-0.4821005
76	0xbbe8ca2b	-0.0071041784
77	0x3d9085cb	0.07056769
78	0x3e859ce0	0.2609625
79	0xbf37d3d6	-0.7180761
80	0xbedd2435	-0.43191686
81	0xbe0b2fb2	-0.13592413
82	0xbf04259e	-0.516199
83	0x3ed387d8	0.41314578
84	0xbe8cdf85	-0.27514282
85	0xbda7332f	-0.08164059
86	0xbe5544ba	-0.20826998
87	0x3e920655	0.28520456
88	0xbf6cda0e	-0.92520225
89	0xbe9f3c11	-0.31100515
90	0xbfec2b95	-1.84508
91	0xbe2682f6	-0.16260895
92	0x3efc4017	0.49267647
93	0xbda470c6	-0.08029322
94	0xbf1188ed	-0.5684956
95	0xbd9bc8ae	-0.07606636

_net._net._blocks.0._layers.1._global_mixer.bias f4 [16]
0	0x3e623f74	0.22094518
1	0x3e7ed707	0.24886714
2	0xbef19255	-0.47181955
3	0x3f38b293	0.7214748
4	0xbf22b656	-0.6355947
5	0x3cbb5a6f	0.02287027
6	0x3e9248e9	0.2857125
7	0xbea639f0	-0.32466078
8	0x3f124fc3	0.57152957
9	0x3f2e26c4	0.680279
10	0xbe5c0e6b	-0.21489875
11	0xbe5abe2b	-0.21361606
12	0x3ef9b492	0.48770577
13	0x3e9152b3	0.28383407
14	0x3e805f96	0.25072926
15	0xbd8c2031	-0.068420775

_net._net._blocks.0._layers.1._1x1.weight f4 [16, 16, 1]
0	0x3dae4bf5	0.085105814
1	0x3bbfa89b	0.0058489568
2	0xbcd2ed1f	-0.025747834
3	0x3e8db730	0.27678823
4	0xbe8ade9c	-0.27122962
5	0xbc0ebd21	-0.008712084
6	0x3e568090	0.2094748
7	0xbeaa2ae8	-0.3323586
8	0x3caab69b	0.020839026
9	0x3e7c8557	0.2466024
10	0xbe1a8c44	-0.1509257
11	0xbd7bccab	-0.061474483
12	0xbe23a57e	-0.15981099
13	0x3e456cfc	0.19279855
14	0x3e33decb	0.17565458
15	0x3ef84052	0.48486573
16	0x3e0b5f82	0.13610652
17	0xbdf02c10	-0.11727154
18	0xbd89791f	-0.06712555
19	0xbd8efb0f	-0.069814794
20	0xbe4c78d6	-0.1996797
21	0x3db1eba7	0.08687525
22	0xbe258d82	-0.16167262
23	0x3e4a50e8	0.19757426
24	0x3ef7fca1	0.48434928
25	0xbf8305e9	-1.0236179
26	0xbc19d1c2	-0.009388389
27	0x3e887e4d	0.2665886
28	0x3dab0108	0.08349806
29	0x3de2a377	0.11066335
30	0xbe7a9a25	-0.24472864
31	0xbeb008f8	-0.34381843
32	0xbed8acd0	-0.42319345
33	0xbe54dbda	-0.20786992
34	0x3d7c3f57	0.061583843
35	0xbe9bc8c9	-0.30426624
36	0xbe7d0e05	-0.2471238
37	0x3e425271	0.18976761
38	0x3d145afb	0.03621958
39	0x3ed8e5ff	0.42362973
40	0xbec44bcf	-0.38339087
41	0x3e573d65	0.21019514
42	0x3d3e9ba7	0.04653516
43	0xbed7cf01	-0.4215012
44	0x3d87cf7e	0.06631373
45	0xbe2e97a7	-0.17050038
46	0xbee83e5b	-0.45360073
47	0x3c8b0d49	0.016974108
48	0x3e852fbf	0.2601299
49	0xbe8da963	-0.27668294
50	0xbe62a797	-0.22134243
51	0x3e904100	0.2817459
52	0xbed29553	-0.4112955
53	0x3ed0a455	0.40750375
54	0xbd286792	-0.041114397
55	0xbe89f37d	-0.2694358
56	0x3d67b161	0.056565646
57	0xbeacef74	-0.33776438
58	0x3e2341e8	0.1594311
59	0xbefd152d	-0.49430218
60	0x3d7068da	0.058693744
61	0x3e272886	0.16324052
62	0xbe9185a9	-0.28422287
63	0x3f2e201c	0.68017745
64	0xbdcb7a88	-0.0993548
65	0xbd0fa2f6	-0.03506752
66	0xbe719db8	-0.23595321
67	0xbda97129	-0.08273537
68	0x3b8bc248	0.0042651035
69	0xbd89e077	-0.067322664
70	0xbe6e2e2b	-0.23259799
71	0xbe80ba2d	-0.2514204
72	0xbe019829	-0.126557
73	0xbca6f2a8	-0.02037938
74	0x3d7a3156	0.061082207
75	0x3d0fc136	0.03509637
76	0xbd028831	-0.031868163
77	0x3e448548	0.19191468
78	0xbe0c97fa	-0.1372985
79	0x3e57f52e	0.21089622
80	0xbc3343d1	-0.010941462
81	0xbd069f30	-0.032866657
82	0x3c150dc0	0.009097517
83	0x3ebb7adc	0.36617172
84	0x3e2d1993	0.16904287
85	0xbe5e26d5	-0.216945
86	0x3c492309	0.012276419
87	0xbdc700b4	-0.09716931
88	0x3e2e38f1	0.17013909
89	0xbe9bc394	-0.30422652
90	0x3c1e0902	0.009645702
91	0x3e5fdfd9	0.21862735
92	0xbe951769	-0.29119423
93	0xbdabec98	-0.08394736
94	0xbebdd242	-0.37074476
95	0xbe373d10	-0.17894387
96	0xbda39650	-0.07987654
97	0xbe103b6f	-0.14085172
98	0x3d2d3d36	0.042294703
99	0xbf12c2e0	-0.57328606
100	0xbd292995	-0.04129942
101	0xbe03119d	-0.12799688
102	0x3ee257c9	0.442076
103	0x3dae73a0	0.085181475
104	0x3e018879	0.12649716
105	0xbe8d274b	-0.2756904
106	0xbda70843	-0.08155873
107	0x3cc797d7	0.024364395
108	0xbe39a9a6	-0.18131122
109	0xbdc351ec	-0.0953711
110	0xbe878ef6	-0.26476258
111	0xbe97a7b6	-0.2962014
112	0x3e9abd39	0.3022249
113	0xbe05ea29	-0.13077606
114	0x3e96b190	0.29432344
115	0xbe78ceaa	-0.24297586
116	0x3e890ef6	0.26769227
117	0xbe07c2c5	-0.13257892
118	0xbb61565d	-0.0034383752
119	0x3f109c21	0.56488234
120	0x3e2aa277	0.16663538
121	0xbea3af7d	-0.31969824
122	0xbe9b7d71	-0.30369142
123	0x3ebe9638	0.37223983
124	0x3e6faef5	0.23406585
125	0x3e8c501e	0.27404875
126	0xbe343c44	-0.17601115
127	0x3e98cc18	0.2984321
128	0xbea80867	-0.3281891
129	0xbe844650	-0.25834894
130	0xbe01e035	-0.12683184
131	0x3c8a2ea2	0.01686794
132	0xbe3286c9	-0.17434229
133	0xbdee5acd	-0.116384126
134	0xbe08550b	-0.13313691
135	0x3f0481c2	0.51760495
136	0xbe98c360	-0.2983656
137	0xb99ae3a5	-0.00029542777
138	0x3c2d726a	0.0105863605
139	0x3e838a58	0.25691485
140	0xbe0d94bb	-0.13826267
141	0x3d8270b5	0.063691534
142	0xbed65166	-0.41858977
143	0xbdab2979	-0.0835752
144	0x3e9e1c07	0.30880758
145	0xbe2cf4af	-0.16890214
146	0x3dcbc334	0.099493414
147	0x3e5c2e22	0.21501973
148	0x3e12fe56	0.14354834
149	0xbe56ddf6	-0.20983109
150	0x3ee3663a	0.4441393
151	0x3e31b0ee	0.1735265
152	0x3d40c02e	0.047058277
153	0xbec55b24	-0.38546097
154	0x3c92bfa2	0.017913643
155	0x3f112a6e	0.5670537
156	0xbd88a0fb	-0.066713296
157	0xbed8154d	-0.4220375
158	0x3c6cff62	0.014465185
159	0xbe9229c2	-0.28547484
160	0x3f285867	0.6575989
161	0x3d1d03a6	0.038333558
162	0x3e16b495	0.14717324
163	0x3c0dc6a6	0.0086533185
164	0x3e40f833	0.1884468
165	0xbd1e0dd6	-0.038587414
166	0x3d924b40	0.07143259
167	0x3e7e7082	0.24847606
168	0xbe413aab	-0.18870036
169	0x3d5033e0	0.05083072
170	0xbde7018b	-0.11279591
171	0x3f06fd71	0.5273047
172	0x3e6a8870	0.2290361
173	0xbdcadb06	-0.09905057
174	0xbf204120	-0.6259937
175	0x3ef133b9	0.47109774
176	0xbed2e205	-0.41188064
177	0xbe29f8ca	-0.16598812
178	0xbdf657f8	-0.120284975
179	0xbd978e57	-0.07400196
180	0x3e76b300	0.2409172
181	0xbe454948	-0.19266236
182	0xbc8a67aa	-0.016895134
183	0xbe07f1f1	-0.13275887
184	0x3e1f644c	0.15565604
185	0x3e87f5c4	0.26554692
186	0xbea409e7	-0.32038805
187	0xbe47da51	-0.19516875
188	0xbdfa06a3	-0.12208297
189	0x3d6a26ee	0.057166032
190	0xbd208521	-0.03918946
191	0x3dd32f14	0.10311714
192	0xbeedd250	-0.46449518
193	0xbe3c9be6	-0.18418846
194	0x3e57595e	0.21030185
195	0xbd991ef2	-0.074766055
196	0x3f39170d	0.723008
197	0xbf070bd0	-0.527524
198	0x3c275fe9	0.010215738
199	0x3e7c1e58	0.2462095
200	0xbed675a1	-0.4188662
201	0x3da3fc7d	0.08007143
202	0xb98dab64	-0.00027021312
203	0xbee69e79	-0.4504278
204	0x3e58fa72	0.21189287
205	0x3e30fa64	0.17283016
206	0xbede612c	-0.4343351
207	0x3e116786	0.14199647
208	0xbed28514	-0.41117156
209	0x3e805a0c	0.250687
210	0x3e1d81da	0.15381566
211	0x3e3a4833	0.18191604
212	0xbe7429da	-0.2384409
213	0xbe81727e	-0.25282663
214	0xbd6a5dc8	-0.057218343
215	0x3e87047a	0.26370603
216	0xbf59af72	-0.85033333
217	0x3eb160aa	0.3464406
218	0xbdc74862	-0.09730603
219	0xbe9eab56	-0.30990094
220	0xbe2fb419	-0.17158546
221	0xbe42ddfa	-0.1902999
222	0xbe718b36	-0.23588261
223	0x3d6f6344	0.058444276
224	0x3e236a45	0.15958507
225	0x3f0844ef	0.53230184
226	0x3ec16ca7	0.37778208
227	0xbe73dd4f	-0.23814891
228	0x3d18f5e5	0.03734388
229	0x3a020c6b	0.0004960957
230	0x3e1798a5	0.14804323
231	0x3deab2d0	0.11459887
232	0xbe9dad78	-0.3079641
233	0x3dd9a5a2	0.10627295
234	0xbe94abe0	-0.2903738
235	0xbea3263a	-0.31865102
236	0xbd5b69f3	-0.053567838
237	0xbe94e5bb	-0.2908152
238	0x3d50e106	0.05099585
239	0xbc1e4074	-0.0096589215
240	0x3ecef25d	0.40419284
241	0xbdb89a19	-0.09013767
242	0x3c9d0e5a	0.019171882
243	0xbe57bc65	-0.2106796
244	0xbd2f0b89	-0.04273561
245	0xbd439fc2	-0.04775978
246	0x3c83319d	0.016014868
247	0x3ed510bb	0.41614327
248	0xbec48684	-0.38383877
249	0x3de7190b	0.112840734
250	0xbd926777	-0.071486406
251	0x3cbfd9c5	0.02341927
252	0x3d1218cf	0.03566819
253	0x3e46962f	0.19393228
254	0xbc736668	-0.0148559585
255	0xbc9c1f87	-0.019058002

_net._net._blocks.0._layers.1._1x1.bias f4 [16]
0	0x3eca8e0e	0.39561504
1	0xbe6e65fc	-0.23281091
2	0xbee44ab6	-0.4458825
3	0xbd0f7549	-0.03502396
4	0x3ecb3e5e	0.3969602
5	0xbe297239	-0.16547479
6	0xbeb23b50	-0.34810877
7	0x3e9ca531	0.3059478
8	0xbe18ebcd	-0.14933701
9	0xbd4a9726	-0.049460553
10	0x3e005ba9	0.12534966
11	0x3e0270da	0.12738362
12	0x3e4f6f08	0.20257199
13	0x3d768328	0.060183674
14	0xbd1ac443	-0.037784826
15	0xbeca4a0f	-0.39509627

_net._net._blocks.0._layers.2._conv.weight f4 [16, 16, 3]
0	0x3e8a0f48	0.26964784
1	0xbd35eff3	-0.044418287
2	0xbe1d5458	-0.15364206
3	0xbe361895	-0.17782815
4	0xbece35a8	-0.4027531
5	0xbe4c28d0	-0.19937444
6	0x3eaf5ddc	0.34251297
7	0xbd61bcf9	-0.05511186
8	0xbe305453	-0.17219667
9	0x3f0bf208	0.54666185
10	0x3db49eab	0.08819326
11	0x3f023135	0.50856334
12	0x3e66caf4	0.22538358
13	0x3e945ca0	0.28976917
14	0xbf095041	-0.5363808
15	0xbe7eae62	-0.2487121
16	0x3e1b6bff	0.15177916
17	0x3da9121f	0.082554094
18	0xbce3479a	-0.027744103
19	0xbd66e807	-0.056373622
20	0xbce652e5	-0.028115699
21	0x3edf1bb3	0.4357582
22	0x3d693570	0.056935728
23	0xbede82d7	-0.43459198
24	0x3e8e9c8b	0.27853808
25	0xbdaa57cc	-0.08317527
26	0xbf0d6696	-0.5523466
27	0x3f35babd	0.70988065
28	0xbdd27c84	-0.10277656
29	0x3ea04b27	0.31307337
30	0x3eb5b9a0	0.35493183
31	0x3e10fd93	0.14159231
32	0xbf003785	-0.50084716
33	0xbe0eaa2f	-0.13932107
34	0x3eeb864d	0.460009
35	0x3ce7d802	0.028301243
36	0x3ea64a7f	0.3247871
37	0x3eae8f56	0.34093732
38	0x3e68c8e2	0.2273288
39	0xbda747b4	-0.08167973
40	0xbcd47a26	-0.025937151
41	0xbe79503d	-0.24347015
42	0xbe059442	-0.13044837
43	0xbe1c0f52	-0.15240219
44	0xbe97b9f0	-0.29634047
45	0xbe30a0f0	-0.17248893
46	0x3ecc7c3a	0.39938527
47	0xbe78d5a4	-0.24300247
48	0xbefd87a8	-0.4951756
49	0xbd354ee2	-0.04426468
50	0x3ed8b7ea	0.42327815
51	0x3e775aef	0.24155782
52	0x3e72d773	0.23715
53	0xbe659ac6	-0.22422323
54	0xbdd0ab44	-0.10188916
55	0xbad42c03	-0.0016187433
56	0x3eb67a8a	0.35640365
57	0xbce3d048	-0.027809277
58	0x3d6d2b6b	0.057902735
59	0xbeb62410	-0.35574389
60	0xbde68618	-0.11256045
61	0x3e266573	0.16249637
62	0x3e8c29a8	0.2737553
63	0x3dfb6986	0.122759864
64	0xbd691ee7	-0.056914236
65	0xbec714f7	-0.38883182
66	0x3d66588c	0.05623679
67	0x3ea28844	0.31744587
68	0xbefcf80c	-0.49407995
69	0xbebe412d	-0.371591
70	0xbd699360	-0.057025313
71	0x3ed361d8	0.41285586
72	0xbe2b48c7	-0.16726981
73	0x3c852fda	0.016258169
74	0x3eb47a45	0.35249534
75	0x3d3356f8	0.04378411
76	0x3ecb6a21	0.39729407
77	0xbe0af77f	-0.13570975
78	0xbbca8b59	-0.0061811623
79	0xbe4c6fa0	-0.19964457
80	0x3e2d8f26	0.16949138
81	0x3e4c7251	0.19965483
82	0x3de4afb0	0.11166322
83	0xbe124636	-0.14284596
84	0xbdbaea5e	-0.09126733
85	0xbe3afb12	-0.18259838
86	0x3e8c6a7a	0.27424985
87	0xbec7ea66	-0.3904602
88	0xbec8e1cd	-0.39234772
89	0x3ee477a5	0.44622532
90	0xbe925adf	-0.28584954
91	0xbe6c9880	-0.23105049
92	0x3f1a9d69	0.6039644
93	0xbc96b4e9	-0.018396812
94	0xbe466b2c	-0.1937682
95	0xbdb38635	-0.08765832
96	0x3e080f80	0.13287163
97	0xbe54c3ac	-0.20777768
98	0xbdf031e4	-0.11728266
99	0x3e167b1b	0.14695399
100	0x3e9006b0	0.28130102
101	0xbe85cefa	-0.26134473
102	0x3daf4688	0.08558375
103	0xbe21acd5	-0.15788586
104	0xbd9f97ab	-0.077926
105	0x3d0e247d	0.034702767
106	0xbf178f71	-0.5920325
107	0x3e3d2a90	0.18473268
108	0xbf335e12	-0.70065415
109	0xbded3ab6	-0.11583464
110	0x3f53ed44	0.82783914
111	0x3ba28dc3	0.004960747
112	0x3e91afd0	0.28454447
113	0x3d6eff16	0.058348738
114	0xbed5469b	-0.4165543
115	0xbdfe2a05	-0.12410358
116	0x3e0fa8d2	0.14029244
117	0xbedaa86b	-0.42706618
118	0x3f156f83	0.5837328
119	0xbf138012	-0.57617295
120	0xbe488628	-0.19582427
121	0xbd57d7b2	-0.052695937
122	0x3e05d303	0.13068776
123	0xbedc676c	-0.43047655
124	0xbe30f0b3	-0.1727932
125	0x3f336e3a	0.7009007
126	0xbd4a22e5	-0.049349684
127	0xbe829d8d	-0.25510827
128	0x3f2be034	0.6713898
129	0x3e4837a0	0.19552469
130	0x3d89562c	0.06705889
131	0xbec6cc8a	-0.38827926
132	0xbca7a48d	-0.020464206
133	0x3ea19cf1	0.3156505
134	0xbe624aea	-0.2209889
135	0x3a0a6a3c	0.00052801124
136	0xbe89cce2	-0.26914126
137	0xbd26076a	-0.040534414
138	0x3cef6f00	0.029227734
139	0x3e8f346c	0.27969682
140	0x3ed18373	0.409206
141	0x3ebc9cec	0.36838472
142	0x3e0de014	0.1385501
143	0x3dec631e	0.115423426
144	0xbf0f12b1	-0.55887896
145	0xbe502a38	-0.20328605
146	0xbdb80617	-0.089855365
147	0x3dd980be	0.10620259
148	0x3ce39f40	0.027785897
149	0xbf092068	-0.53565073
150	0x3d842e72	0.06454171
151	0x3eb1b044	0.34704792
152	0xbd37987d	-0.04482316
153	0xbc9bf7f5	-0.019039134
154	0x3f619523	0.8811819
155	0xbdcae372	-0.09906663
156	0xbea1c950	-0.31598902
157	0x3e245051	0.16046263
158	0x3eaf40c6	0.34229106
159	0x3e97c470	0.29642057
160	0xbec0ef41	-0.37682536
161	0xbf3e7322	-0.7439443
162	0x3f07e25d	0.5307978
163	0xbe594176	-0.21216378
164	0xbe68a2e3	-0.22718386
165	0xbe1fb0bf	-0.15594767
166	0xbd9c11d7	-0.0762059
167	0x3f0c0195	0.54689914
168	0xbede1841	-0.4337788
169	0x3dacb24e	0.084324464
170	0x3e3707ea	0.17874113
171	0x3e347068	0.17621005
172	0xbecae05d	-0.396243
173	0x3f024467	0.50885624
174	0xbebd54b8	-0.36978698
175	0xbf001203	-0.50027484
176	0x3f4eede2	0.8083173
177	0x3e9cecea	0.306495
178	0x3e18038b	0.14845102
179	0xbeb36f5e	-0.35045904
180	0x3e3a8bca	0.18217388
181	0x3e47698a	0.19473854
182	0xbe914754	-0.28374732
183	0xbefe7214	-0.4969641
184	0xbe7c4b3f	-0.24638079
185	0x3eb98913	0.36237392
186	0xbeb85ad4	-0.36006796
187	0xbebbbdeb	-0.36668333
188	0x3f1c2b4b	0.6100356
189	0x3d13fa40	0.03612733
190	0xbf64c2c2	-0.89359677
191	0x3f2eceff	0.682846
192	0xbbc127c2	-0.005894632
193	0x3e4b7dbe	0.19872186
194	0x3c40357a	0.0117315
195	0xbd54ce96	-0.05195483
196	0xbe1127b6	-0.14175305
197	0x3e5122e6	0.20423469
198	0xbd8db6fa	-0.06919666
199	0x3dea78b2	0.11448802
200	0x3e808d79	0.25107935
201	0x3e416b3c	0.18888563
202	0x3dc4f5fb	0.096172296
203	0x3d27b221	0.04094136
204	0x3ecdaab7	0.40169308
205	0x3d34e617	0.044164743
206	0xbec23ddc	-0.3793782
207	0x3c2e80ea	0.010650853
208	0xbe132adc	-0.14371818
209	0xbd7fd496	-0.062458597
210	0xbe976fdd	-0.29577532
211	0x3e55aef9	0.20867528
212	0x3e36480a	0.17800918
213	0xbdd6f9df	-0.10496878
214	0x3c746d81	0.014918686
215	0xbd16642b	-0.03671662
216	0x3dcf1dec	0.10113129
217	0xbdc94c74	-0.098290354
218	0x3e2901ac	0.16504544
219	0x3c76c0e5	0.015060638
220	0x3f0ddd6a	0.55415976
221	0xbe179b1b	-0.14805262
222	0x3e30d145	0.1726733
223	0xbdd57753	-0.1042315
224	0x3ef8f6dc	0.4862584
225	0x3e045161	0.12921669
226	0xbd54257a	-0.051793553
227	0x3e5d52fa	0.21613684
228	0x3e7af995	0.2450927
229	0x3d8c470d	0.06849489
230	0xbe7c3fa3	-0.2463365
231	0x3d134b17	0.035960283
232	0xbe487002	-0.19573978
233	0x3d2c0189	0.04199365
234	0xbe138a3d	-0.14408202
235	0x3da625f4	0.08112708
236	0xbe373171	-0.17889954
237	0x3dee599c	0.116381854
238	0xbd763636	-0.060110293
239	0x3e8ce952	0.2752176
240	0x3f248817	0.64270157
241	0xbee1ec74	-0.44125712
242	0xbd982d76	-0.07430546
243	0xbe8e7c66	-0.27829283
244	0x3e861397	0.2618682
245	0x3e2a95f8	0.16658771
246	0x3deb148c	0.114785284
247	0xbc4c0fae	-0.01245491
248	0xbee6c2af	-0.45070407
249	0xbe1dbb7d	-0.15403552
250	0xbf79ad35	-0.9752992
251	0xbd44af96	-0.048019014
252	0xbedf1626	-0.43571585
253	0x3d6655b1	0.056234065
254	0x3efb3265	0.49061885
255	0xbdadc403	-0.08484652

_net._net._blocks.0._layers.2._conv.bias f4 [16]
0	0x3e5d2304	0.21595389
1	0xbe770923	-0.24124579
2	0x3d57d28d	0.05269103
3	0x3eb80837	0.35943767
4	0xbe0a9b54	-0.13535815
5	0xbef228c8	-0.4729674
6	0xbed56bac	-0.4168371
7	0xbe3ca052	-0.18420532
8	0x3df6a454	0.12043062
9	0xbd7f523c	-0.062334284
10	0xbd2de6c7	-0.042456415
11	0xbc74e1ca	-0.01494641
12	0xbcff3ff5	-0.031158427
13	0x3ea220e6	0.31665725
14	0x3e5f9f79	0.21838178
15	0x3e9f5e1d	0.3112649

_net._net._blocks.0._layers.2._input_mixer.weight f4 [16, 1, 1]
0	0xbe43aa99	-0.19108047
1	0x3de5590a	0.111986235
2	0xbe2420dd	-0.16028161
3	0xbf0cbcb9	-0.5497547
4	0x3eac2ef4	0.33629572
5	0x3d012713	0.031531405
6	0x3ef54557	0.47904465
7	0xbe916721	-0.28398994
8	0x3da8be24	0.082393914
9	0xbe8fa9d0	-0.28059244
10	0x3f589eca	0.8461729
11	0x3def3325	0.11679677
12	0xbd36f88f	-0.044670638
13	0x3fbe9aea	1.4891026
14	0xbef1fa05	-0.47261062
15	0x3f1dc0fd	0.616226

_net._net._blocks.0._layers.2._global_mixer.weight f4 [16, 6]
0	0x3efa5b2a	0.48897678
1	0x3f6d6dd4	0.9274571
2	0x3e1316bd	0.14364143
3	0xbf6a7dec	-0.9159839
4	0xbdb7ea32	-0.08980216
5	0x3e5efa9a	0.21775284
6	0x3e9b0d38	0.30283523
7	0xbf1a24b5	-0.6021226
8	0x3e905adb	0.28194317
9	0x3f958b6e	1.1683176
10	0x3f187e45	0.5956767
11	0x3e9e19bb	0.30879006
12	0xbf1d93d8	-0.61553717
13	0x3f90b075	1.130385
14	0x3d4d1ea0	0.050078034
15	0xbd3f2e63	-0.046675097
16	0xbe8d5775	-0.27605787
17	0x3e4c044a	0.19923511
18	0xbe21853b	-0.1577348
19	0xbe9627e1	-0.293273
20	0xbeadcc9d	-0.3394517
21	0xbe8bf886	-0.27338046
22	0x3d37dde9	0.044889364
23	0xbe12fa2d	-0.14353247
24	0x3f87d665	1.0612303
25	0x3ce39d68	0.027785018
26	0x3f126885	0.57190734
27	0x3f396a4d	0.7242783
28	0xbf587eac	-0.84568286
29	0x3e03a506	0.1285592
30	0xbeef4691	-0.46733525
31	0xbf039354	-0.5139668
32	0xbd9e54c1	-0.07731009
33	0x3f7d4750	0.9893694
34	0x3e32d8ae	0.17465469
35	0xbe9d3ff6	-0.3071286
36	0x3c3d7f2f	0.011565967
37	0x3eb632ba	0.35585576
38	0x3ee10f71	0.43957093
39	0xbf6bf382	-0.9216844
40	0xbf61d359	-0.88213116
41	0xbea3544c	-0.3190025
42	0x3dcee16d	0.1010159
43	0xbe0c54ba	-0.13704196
44	0x405f5872	3.4897733
45	0x3fb1a04a	1.3877041
46	0x3dd55fbe	0.10418652
47	0x3e910628	0.2832501
48	0xbd90481a	-0.07045002
49	0xbf26f173	-0.6521217
50	0xbdcbe88f	-0.099564664
51	0xbe9a4fff	-0.30139157
52	0xbdc597f8	-0.09648126
53	0xbc4dc7fd	-0.012559888
54	0x3f30af15	0.69017154
55	0xbe12c3e9	-0.14332546
56	0xbe0052a9	-0.12531532
57	0xbf092945	-0.535786
58	0x3eff69ef	0.49885508
59	0x3e310582	0.17287257
60	0xbe5a8b3e	-0.21342179
61	0xbf917509	-1.1363841
62	0x3ec204d4	0.3789431
63	0x3f5eff15	0.87107974
64	0xbe00c6be	-0.12575814
65	0x3e2cc7cf	0.16873096
66	0x3ee3dc7c	0.44504154
67	0xbf09e731	-0.53868395
68	0xbf10cfa5	-0.5656684
69	0xbee4b11f	-0.44666383
70	0x3e64fe84	0.22362715
71	0x3de4e4b1	0.11176432
72	0x3e77c4dc	0.2419619
73	0xc000ac3a	-2.0105119
74	0xbf65a139	-0.8969913
75	0xbf8b75cf	-1.0895327
76	0x3ee22a6c	0.4417299
77	0xbe5e24b4	-0.21693689
78	0xbe80b925	-0.25141254
79	0xbf357728	-0.70884943
80	0x3eaaa425	0.33328357
81	0x3e561b0d	0.20908757
82	0xbf1058f0	-0.5638571
83	0xbec17ec3	-0.37792024
84	0xbf4cc825	-0.79992896
85	0x3c696216	0.014244577
86	0xbea1529a	-0.31508332
87	0xbe087c1d	-0.13328595
88	0xbefdd927	-0.49579737
89	0xbe9e3fc8	-0.30908036
90	0xbf216a94	-0.6305325
91	0xbdc50e4e	-0.09621869
92	0xbe323a31	-0.17405011
93	0x3ec061e8	0.37574697
94	0xbe377fe1	-0.17919876
95	0x3dff4bc0	0.1246562

_net._net._blocks.0._layers.2._global_mixer.bias f4 [16]
0	0x3e9f1566	0.31071013
1	0x3e884122	0.26612192
2	0xbe096c17	-0.13420139
3	0x3f4a99f5	0.7914117
4	0xbf0ca0b2	-0.549327
5	0xbf5ae2ab	-0.8550212
6	0xbe229922	-0.15878728
7	0xbe955af4	-0.29170954
8	0x3e6c3e30	0.23070598
9	0xbe867339	-0.26259783
10	0x3eaf3126	0.34217185
11	0x3eab7728	0.33489347
12	0x3cbf3cb0	0.023344368
13	0x3eab753f	0.3348789
14	0x3f0ff950	0.56239796
15	0x3f1da38b	0.6157767
